…
ions=['10000_poisson', '30000_poisson', '50000_poisson'], score_net_hidden_dim=128, score_net_num_blocks=4, seed=2020, sigma=0.2, summary_dir='../Exp/snn-noise-T4-IF/logs', supervised=True, tag=None, train_batch_size=32, val_freq=2000, val_noise=0.015, val_num_visualize=4, val_upsample_rate=4, weight_decay=0)
[2024-07-04 20:46:15,882::train::INFO] Loading datasets
[2024-07-04 20:46:25,067::train::INFO] Building model...
[2024-07-04 20:46:25,220::train::INFO] DenoiseNet_snn_Noisy(
  (feature_net): FeatureExtraction_snn_Noisy(
    (transforms): ModuleList(
      (0): FCLayer_snn(
        (linear): Linear(in_features=3, out_features=24, bias=True)
        (activation): Identity()
      )
      (1-3): 3 x FCLayer_snn(
        (linear): Linear(in_features=60, out_features=24, bias=True)
        (activation): NIIFNode(
          v_threshold=1.0, v_reset=None, detach_reset=True, step_mode=m, backend=torch, sigma=0.2
          (surrogate_function): ATan(alpha=2.0, spiking=True)
        )
      )
    )
    (convs): ModuleList(
      (0): DenseEdgeConv_snn_NoisySAN(
        (layer_first): FCLayer_snn(
          (linear): Linear(in_features=24, out_features=12, bias=True)
          (activation): NIIFNode(
            v_threshold=1.0, v_reset=None, detach_reset=True, step_mode=m, backend=torch, sigma=0.2
            (surrogate_function): ATan(alpha=2.0, spiking=True)
          )
        )
        (layer_last): FCLayer_snn(
          (linear): Linear(in_features=48, out_features=12, bias=True)
          (activation): Identity()
        )
        (layers): ModuleList(
          (0): FCLayer_snn(
            (linear): Linear(in_features=36, out_features=12, bias=True)
            (activation): NIIFNode(
              v_threshold=1.0, v_reset=None, detach_reset=True, step_mode=m, backend=torch, sigma=0.2
              (surrogate_function): ATan(alpha=2.0, spiking=True)
            )
          )
        )
        (aggr): Aggregator()
      )
      (1-3): 3 x DenseEdgeConv_snn_NoisySAN(
        (layer_first): FCLayer_snn(
          (linear): Linear(in_features=72, out_features=12, bias=True)
          (activation): NIIFNode(
            v_threshold=1.0, v_reset=None, detach_reset=True, step_mode=m, backend=torch, sigma=0.2
            (surrogate_function): ATan(alpha=2.0, spiking=True)
          )
        )
        (layer_last): FCLayer_snn(
          (linear): Linear(in_features=48, out_features=12, bias=True)
          (activation): Identity()
        )
        (layers): ModuleList(
          (0): FCLayer_snn(
            (linear): Linear(in_features=36, out_features=12, bias=True)
            (activation): NIIFNode(
              v_threshold=1.0, v_reset=None, detach_reset=True, step_mode=m, backend=torch, sigma=0.2
              (surrogate_function): ATan(alpha=2.0, spiking=True)
            )
          )
        )
        (aggr): Aggregator()
      )
    )
  )
  (score_net): ScoreNet(
    (conv_p): Conv1d(63, 128, kernel_size=(1,), stride=(1,))
    (blocks): ModuleList(
      (0-3): 4 x ResnetBlockConv1d(
        (bn_0): BatchNorm1d(128, eps=1e-05, momentum=0.1, affine=True, track_running_stats=True)
        (bn_1): BatchNorm1d(128, eps=1e-05, momentum=0.1, affine=True, track_running_stats=True)
        (fc_0): Conv1d(128, 128, kernel_size=(1,), stride=(1,))
        (fc_1): Conv1d(128, 128, kernel_size=(1,), stride=(1,))
        (fc_c): Conv1d(63, 128, kernel_size=(1,), stride=(1,))
        (actvn): ReLU()
      )
    )
    (bn_out): BatchNorm1d(128, eps=1e-05, momentum=0.1, affine=True, track_running_stats=True)
    (conv_out): Conv1d(128, 3, kernel_size=(1,), stride=(1,))
    (actvn_out): ReLU()
  )
)
[2024-07-04 20:46:25,221::train::INFO] Start training...
[2024-07-04 20:46:51,552::train::INFO] [Train] Iter 0100 | Loss 0.112411 | Grad 72.163475
[2024-07-04 20:47:16,570::train::INFO] [Train] Iter 0200 | Loss 0.051951 | Grad 36.835857
[2024-07-04 20:47:41,675::train::INFO] [Train] Iter 0300 | Loss 0.040786 | Grad 25.553850
[2024-07-04 20:48:06,774::train::INFO] [Train] Iter 0400 | Loss 0.030055 | Grad 23.071121
…
